…
ent_coef_optimizer:
  desc: null
  value: "Adam (\nParameter Group 0\n    amsgrad: False\n    betas: (0.9, 0.999)\n\
    \    capturable: False\n    differentiable: False\n    eps: 1e-08\n    foreach:\
    \ None\n    fused: None\n    lr: 0.0001\n    maximize: False\n    weight_decay:\
    \ 0\n)"
lr_schedule:
  desc: null
  value: <function constant_fn.<locals>.func at 0x7f57d8869d80>
actor:
  desc: null
  value: "Actor(\n  (features_extractor): FeatureExtractorWithPointNetEncoder(\n \
    \   (feature_extractor_net): PointNetFeatureExtractor(\n      (pointnet_local_fea):\
    \ Sequential(\n        (0): Conv1d(4, 64, kernel_size=(1,), stride=(1,))\n   \
    \     (1): Identity()\n        (2): ReLU()\n        (3): Conv1d(64, 64, kernel_size=(1,),\
    \ stride=(1,))\n        (4): Identity()\n        (5): ReLU()\n      )\n      (pointnet_global_fea):\
    \ PointNetFeaNew(\n        (conv0): Conv1d(64, 64, kernel_size=(1,), stride=(1,))\n\
    \        (bn0): Identity()\n        (conv1): Conv1d(64, 128, kernel_size=(1,),\
    \ stride=(1,))\n        (bn1): Identity()\n        (conv2): Conv1d(128, 512, kernel_size=(1,),\
    \ stride=(1,))\n        (bn2): Identity()\n      )\n      (mlp_output): Sequential(\n\
    \        (0): Linear(in_features=512, out_features=256, bias=True)\n        (1):\
    \ ReLU()\n        (2): Linear(in_features=256, out_features=256, bias=True)\n\
    \        (3): ReLU()\n        (4): Linear(in_features=256, out_features=32, bias=True)\n\
    \      )\n    )\n  )\n  (latent_pi): Sequential(\n    (0): Linear(in_features=64,\
    \ out_features=256, bias=True)\n    (1): Identity()\n    (2): ReLU()\n    (3):\
    \ Linear(in_features=256, out_features=256, bias=True)\n    (4): Identity()\n\
    \    (5): ReLU()\n    (6): Linear(in_features=256, out_features=256, bias=True)\n\
    \    (7): Tanh()\n  )\n  (mu): Linear(in_features=256, out_features=3, bias=True)\n\
    \  (log_std): Linear(in_features=256, out_features=3, bias=True)\n)"
critic:
  desc: null
  value: "ContinuousCritic(\n  (features_extractor): CriticFeatureExtractor()\n  (qf0):\
    \ Sequential(\n    (0): Linear(in_features=6, out_features=256, bias=True)\n \
    \   (1): ReLU()\n    (2): Linear(in_features=256, out_features=256, bias=True)\n\
    \    (3): ReLU()\n    (4): Linear(in_features=256, out_features=1, bias=True)\n\
    \  )\n  (qf1): Sequential(\n    (0): Linear(in_features=6, out_features=256, bias=True)\n\
    \    (1): ReLU()\n    (2): Linear(in_features=256, out_features=256, bias=True)\n\
    \    (3): ReLU()\n    (4): Linear(in_features=256, out_features=1, bias=True)\n\
    \  )\n)"
critic_target:
  desc: null
  value: "ContinuousCritic(\n  (features_extractor): CriticFeatureExtractor()\n  (qf0):\
    \ Sequential(\n    (0): Linear(in_features=6, out_features=256, bias=True)\n \
    \   (1): ReLU()\n    (2): Linear(in_features=256, out_features=256, bias=True)\n\
    \    (3): ReLU()\n    (4): Linear(in_features=256, out_features=1, bias=True)\n\
    \  )\n  (qf1): Sequential(\n    (0): Linear(in_features=6, out_features=256, bias=True)\n\
    \    (1): ReLU()\n    (2): Linear(in_features=256, out_features=256, bias=True)\n\
    \    (3): ReLU()\n    (4): Linear(in_features=256, out_features=1, bias=True)\n\
    \  )\n)"
batch_norm_stats:
  desc: null
  value: '[]'
batch_norm_stats_target:
  desc: null
  value: '[]'
_logger:
  desc: null
  value: <stable_baselines3.common.logger.Logger object at 0x7f57d0bbcfd0>
