…
d2fb0>', 'replay_buffer_class': "<class 'stable_baselines3.common.buffers.DictReplayBuffer'>", 'replay_buffer_kwargs': '{}', '_episode_storage': 'None', 'train_freq': "TrainFreq(frequency=2, unit=<TrainFrequencyUnit.STEP: 'step'>)", 'use_sde_at_warmup': 'False', 'policy_delay': 2, 'target_noise_clip': 1, 'target_policy_noise': 0.5, 'lr_schedule': '<function constant_fn.<locals>.func at 0x7f2f152e9990>', 'actor': 'customActor(\n  (features_extractor): FeatureExtractorWithPointNetEncoder(\n    (feature_extractor_net): PointNetFeatureExtractor(\n      (pointnet_local_fea): Sequential(\n        (0): Conv1d(4, 64, kernel_size=(1,), stride=(1,))\n        (1): Identity()\n        (2): ReLU()\n        (3): Conv1d(64, 64, kernel_size=(1,), stride=(1,))\n        (4): Identity()\n        (5): ReLU()\n      )\n      (pointnet_global_fea): PointNetFeaNew(\n        (conv0): Conv1d(64, 64, kernel_size=(1,), stride=(1,))\n        (bn0): Identity()\n        (conv1): Conv1d(64, 128, kernel_size=(1,), stride=(1,))\n        (bn1): Identity()\n        (conv2): Conv1d(128, 512, kernel_size=(1,), stride=(1,))\n        (bn2): Identity()\n      )\n      (mlp_output): Sequential(\n        (0): Linear(in_features=512, out_features=256, bias=True)\n        (1): ReLU()\n        (2): Linear(in_features=256, out_features=256, bias=True)\n        (3): ReLU()\n        (4): Linear(in_features=256, out_features=32, bias=True)\n      )\n    )\n  )\n  (mu): Sequential(\n    (0): Linear(in_features=64, out_features=256, bias=True)\n    (1): ReLU()\n    (2): Linear(in_features=256, out_features=256, bias=True)\n    (3): ReLU()\n    (4): Linear(in_features=256, out_features=256, bias=True)\n    (5): ReLU()\n    (6): Linear(in_features=256, out_features=3, bias=True)\n    (7): Tanh()\n  )\n  (mlp_policy): Sequential(\n    (0): Linear(in_features=64, out_features=256, bias=True)\n    (1): LayerNorm((256,), eps=1e-05, elementwise_affine=True)\n    (2): ReLU()\n    (3): Linear(in_features=256, out_features=256, bias=True)\n    (4): LayerNorm((256,), eps=1e-05, elementwise_affine=True)\n    (5): ReLU()\n    (6): Linear(in_features=256, out_features=3, bias=True)\n    (7): Tanh()\n  )\n)', 'actor_target': 'customActor(\n  (features_extractor): FeatureExtractorWithPointNetEncoder(\n    (feature_extractor_net): PointNetFeatureExtractor(\n      (pointnet_local_fea): Sequential(\n        (0): Conv1d(4, 64, kernel_size=(1,), stride=(1,))\n        (1): Identity()\n        (2): ReLU()\n        (3): Conv1d(64, 64, kernel_size=(1,), stride=(1,))\n        (4): Identity()\n        (5): ReLU()\n      )\n      (pointnet_global_fea): PointNetFeaNew(\n        (conv0): Conv1d(64, 64, kernel_size=(1,), stride=(1,))\n        (bn0): Identity()\n        (conv1): Conv1d(64, 128, kernel_size=(1,), stride=(1,))\n        (bn1): Identity()\n        (conv2): Conv1d(128, 512, kernel_size=(1,), stride=(1,))\n        (bn2): Identity()\n      )\n      (mlp_output): Sequential(\n        (0): Linear(in_features=512, out_features=256, bias=True)\n        (1): ReLU()\n        (2): Linear(in_features=256, out_features=256, bias=True)\n        (3): ReLU()\n        (4): Linear(in_features=256, out_features=32, bias=True)\n      )\n    )\n  )\n  (mu): Sequential(\n    (0): Linear(in_features=64, out_features=256, bias=True)\n    (1): ReLU()\n    (2): Linear(in_features=256, out_features=256, bias=True)\n    (3): ReLU()\n    (4): Linear(in_features=256, out_features=256, bias=True)\n    (5): ReLU()\n    (6): Linear(in_features=256, out_features=3, bias=True)\n    (7): Tanh()\n  )\n  (mlp_policy): Sequential(\n    (0): Linear(in_features=64, out_features=256, bias=True)\n    (1): LayerNorm((256,), eps=1e-05, elementwise_affine=True)\n    (2): ReLU()\n    (3): Linear(in_features=256, out_features=256, bias=True)\n    (4): LayerNorm((256,), eps=1e-05, elementwise_affine=True)\n    (5): ReLU()\n    (6): Linear(in_features=256, out_features=3, bias=True)\n    (7): Tanh()\n  )\n)', 'critic': 'ContinuousCritic(\n  (features_extractor): CriticFeatureExtractor()\n  (qf0): Sequential(\n    (0): Linear(in_features=6, out_features=256, bias=True)\n    (1): ReLU()\n    (2): Linear(in_features=256, out_features=256, bias=True)\n    (3): ReLU()\n    (4): Linear(in_features=256, out_features=1, bias=True)\n  )\n  (qf1): Sequential(\n    (0): Linear(in_features=6, out_features=256, bias=True)\n    (1): ReLU()\n    (2): Linear(in_features=256, out_features=256, bias=True)\n    (3): ReLU()\n    (4): Linear(in_features=256, out_features=1, bias=True)\n  )\n)', 'critic_target': 'ContinuousCritic(\n  (features_extractor): CriticFeatureExtractor()\n  (qf0): Sequential(\n    (0): Linear(in_features=6, out_features=256, bias=True)\n    (1): ReLU()\n    (2): Linear(in_features=256, out_features=256, bias=True)\n    (3): ReLU()\n    (4): Linear(in_features=256, out_features=1, bias=True)\n  )\n  (qf1): Sequential(\n    (0): Linear(in_features=6, out_features=256, bias=True)\n    (1): ReLU()\n    (2): Linear(in_features=256, out_features=256, bias=True)\n    (3): ReLU()\n    (4): Linear(in_features=256, out_features=1, bias=True)\n  )\n)', 'actor_batch_norm_stats': '[]', 'critic_batch_norm_stats': '[]', 'actor_batch_norm_stats_target': '[]', 'critic_batch_norm_stats_target': '[]', '_logger': '<stable_baselines3.common.logger.Logger object at 0x7f3078c8a0e0>'}
